…
 . epoch train_loss valid_loss time . 0 | 0.863333 | 0.871406 | 00:11 | . 1 | 0.758854 | 0.772884 | 00:11 | . 2 | 0.689706 | 0.749931 | 00:11 | . 3 | 0.631914 | 0.745440 | 00:11 | . 4 | 0.564855 | 0.760767 | 00:11 | . learn.recorder.plot_lr_find() . learn.recorder.plot_loss() . lr = 5e-3 wd = 0.1 learn.fit_one_cycle(5, lr, wd=wd) . epoch train_loss valid_loss time . 0 | 0.622156 | 0.780319 | 00:11 | . 1 | 0.718254 | 0.778601 | 00:11 | . 2 | 0.671352 | 0.759644 | 00:11 | . 3 | 0.600121 | 0.765581 | 00:11 | . 4 | 0.501994 | 0.783923 | 00:11 | . learn.model . EmbeddingNN( (embeds): ModuleList( (0): Embedding(611, 58) (1): Embedding(9720, 274) ) (emb_drop): Dropout(p=0.0, inplace=False) (bn_cont): BatchNorm1d(0, eps=1e-05, momentum=0.1, affine=True, track_running_stats=True) (layers): Sequential( (0): LinBnDrop( (0): BatchNorm1d(332, eps=1e-05, momentum=0.1, affine=True, track_running_stats=True) (1): Linear(in_features=332, out_features=500, bias=False) (2): ReLU(inplace=True) ) (1): LinBnDrop( (0): BatchNorm1d(500, eps=1e-05, momentum=0.1, affine=True, track_running_stats=True) (1): Linear(in_features=500, out_features=100, bias=False) (2): ReLU(inplace=True) ) (2): LinBnDrop( (0): BatchNorm1d(100, eps=1e-05, momentum=0.1, affine=True, track_running_stats=True) (1): Linear(in_features=100, out_features=50, bias=False) (2): ReLU(inplace=True) ) (3): LinBnDrop( (0): Linear(in_features=50, out_features=1, bias=True) ) (4): SigmoidRange(low=0, high=5.5) ) ) . preds,targs = learn.get_preds() print(f&quot;MAE: {mean_absolute_error(targs, preds)}&quot;) print(f&quot;RMSE: {mean_squared_error(targs, preds)}&quot;) . MAE: 0.6728594899177551 RMSE: 0.7839229106903076 . Model Bias and Intepretation . Here we evalute our model. We start by getting the best 25 popular movies an
…
